saved_models/UR5_FetchPush/model_best.pt (torch, 579663 bytes, 8 tensors)

fc1.weight f4 [256, 46]
-0.32650518 0.40193823 -0.5457158 -0.20889409 -0.1339496 0.06461074 -0.18815568 0.024544137
-0.115430005 0.21451838 -0.1315855 0.08018363 0.36023372 0.11017356 0.00942691 -0.07564357
0.32892436 0.15451439 -0.55759734 0.12697461 -0.0378977 -0.20253392 -0.10812396 -0.09886708
-0.010787483 -0.32644248 -0.18801692 1.9624867 3.981459 -0.61618716 0.3323302 0.42547458
-0.05564111 -0.10299491 0.1610602 0.0063721044 0.08158612 -0.23071611 -0.2789642 -0.3677509
-0.4076312 0.031210188 0.09872929 0.3576511 -1.1488107 0.14214642 0.26596862 -0.14295375
0.10618512 0.05936303 -0.4872263 0.38141972 0.2628463 -0.7201213 0.29654995 -0.09678693
-0.26591226 -0.12499446 -0.11945384 0.2491399 -0.2987275 0.15053846 0.0017914617 0.045422267
0.12262136 -0.5415346 -0.34594592 -0.13425367 -0.32549676 -0.28293204 0.23579869 0.112543315
0.22745253 -2.747811 0.6944931 -0.0017583442 0.29921693 0.6912438 -0.07677763 0.10608708
-0.33122042 0.043642197 -0.069989175 0.3123301 0.36691588 -0.36277333 0.31411374 0.033520583
0.12277539 0.815442 -0.8330821 -0.16171442 0.9249214 0.788808 -0.7641857 0.797797
-0.08234791 0.13921204 0.29969117 -0.12795743 0.07855611 0.052786484 0.15083697 -0.004008872
0.2960088 -0.021909092 -0.045037538 -0.046381325 0.040282104 0.20048085 0.3090524 0.006001039
0.023239708 -0.0075028497 -0.08981521 -0.085804276 0.083528824 -0.09844061 -0.007591239 2.2942677
0.89611614 -1.4290545 0.10035537 0.51415515 -0.13968277 -0.3624973 -0.10660449 -0.115198664
0.017896263 0.3526964 0.24734735 -0.3345959 0.32484955 -0.4122243 0.027620366 -1.9069593
-0.50590575 -0.055528447 -0.3866379 -0.15171999 1.1359526 -0.5893722 0.36883584 0.0764032
-0.2448681 -0.3698703 -0.029923921 0.12200666 -0.09467392 -0.06635357 0.045401886 -0.0047926907
0.19487642 -0.5484448 0.10375971 0.7464016 -0.5069039 0.7906224 0.45107967 -0.082782924
0.004885276 -0.012751232 -0.014471487 0.025306694 0.27752846 -0.14118952 -0.33911392 1.9741571
0.93436563 0.62636966 0.22315374 0.34314469 0.21993013 0.9612937 -0.18832149 -0.31403613
0.3169343 -0.10692899 -0.11052677 0.22336598 -0.010559809 0.06654269 -0.22173826 0.09068231
0.8072152 -0.25915942 -0.905489 -0.018668592 0.106059164 -0.22004572 0.08498183 -0.047760792
0.041173697 -0.19722353 -0.03536454 -0.35938597 -0.47240242 -0.29275745 -0.043798715 0.104386255
0.20817724 0.029709764 0.12042328 -0.10299581 -0.025814818 0.0033512719 -0.08935535 -0.08855428
0.23290858 0.0040328777 0.11176066 -0.66414374 2.369023 -0.6665241 -0.095282234 -0.19049354
0.030361313 0.02947864 0.107908525 0.02681026 -0.062014304 -0.3452742 -0.17003056 -0.4794686
-0.16487563 0.043593757 0.00523363 -0.15360695 0.38993552 1.8492948 0.32130504 0.23645766
-0.12916562 -0.31880707 -0.15354753 0.025230475 0.32674113 0.28740036 -0.21744925 0.20919777
0.008349005 0.101585664 -0.018690372 -0.0033863285 0.2089895 -0.17518707 0.11401984 0.22777872
0.06499826 -0.16166304 0.20383777 -0.022299824 -0.28074324 -0.3317671 0.085283354 -0.004795956
00000000: b02b a7be d9ca cd3e 08b4 0bbf 55e8 55be
00000010: 152a 09be a352 843d e2ab 40be c910 c93c
00000020: 9166 ecbd b5aa 5b3e 59be 06be 5137 a43d
00000030: 8e70 b83e ada2 e13d 5473 1a3c 04eb 9abd
00000040: c668 a83e 0539 1e3e b3be 0ebf a205 023e
00000050: 9e3a 1bbd 0d65 4fbe 1870 ddbd d37a cabd
00000060: fcbd 30bc 7823 a7be 8287 40be c432 fb3f
00000070: 39d0 7e40 71be 1dbf 2f27 aa3e ced7 d93e
00000080: efe7 63bd ffee d2bd f7ec 243e 16cd d03b
00000090: a016 a73d d840 6cbe 65d4 8ebe d949 bcbe
000000a0: 09b5 d0be 82ac ff3c 9532 ca3d 0c1e b73e
000000b0: 3b0c 93bf d58e 113e 0a2d 883e 7862 12be
000000c0: 9677 d93d a626 733d ba75 f9be 7249 c33e
000000d0: ca93 863e df59 38bf 65d5 973e 3a38 c6bd
000000e0: a725 88be 18fd ffbd 37a4 f4bd 881e 7f3e
000000f0: d0f2 98be c126 1a3e 7bcf ea3a b30c 3a3d
00000100: e820 fb3d 03a2 0abf d31f b1be cb79 09be
00000110: 83a7 a6be 78dc 90be 3675 713e 1c7d e63d
00000120: 51e9 683e 23dc 2fc0 4dca 313f 3e78 e6ba
00000130: f632 993e 5bf5 303f 973d 9dbd 2f44 d93d
00000140: b995 a9be 29c2 323d 7c56 8fbd bbe9 9f3e
00000150: 66dc bb3e 6dbd b9be 84d3 a03e e14c 093d
00000160: aa71 fb3d cfc0 503f de44 55bf 7798 25be
00000170: a6c7 6c3f 52ef 493f ada1 43bf 6d3c 4c3f
00000180: 05a6 a8bd 9a8d 0e3e 1f71 993e 4607 03be
00000190: 07e2 a03d a436 583d 0275 1a3e db5c 83bb
000001a0: 778e 973e b27a b3bc 4879 38bd 58fa 3dbd
000001b0: d9fe 243d da4a 4d3e 1e3c 9e3e 5da4 c43b
000001c0: 3361 be3c 77da f5bb 09f1 b7bd 27ba afbd
000001d0: 2911 ab3d 3b9b c9bd eebf f8bb 48d5 1240
000001e0: de67 653f 42eb b6bf 1e87 cd3d ac9f 033f
000001f0: 0009 0fbe 3f99 b9be 7453 dabd 47ed ebbd
00000200: 2f9b 923c 9f94 b43e a048 7d3e 2750 abbe
00000210: ae52 a63e 100f d3be 1b44 e23c 3e17 f4bf
00000220: 0a83 01bf cc71 63bd 67f5 c5be 7c5c 1bbe
00000230: e566 913f 19e1 16bf 0dd8 bc3e 4879 9c3d
00000240: b4be 7abe a45f bdbe 0323 f5bc a1de f93d
00000250: 66e4 c1bd 61e4 87bd 54f7 393d 010c 9dbb
00000260: af8d 473e e166 0cbf f97f d43d 2d14 3f3f
00000270: 74c4 01bf 3b66 4a3f eaf3 e63e 188a a9bd
00000280: aa14 a03b 8bea 50bc d119 6dbc fc4f cf3c
00000290: 3618 8e3e fc93 10be 57a0 adbe 2eb1 fc3f
000002a0: 9632 6f3f c359 203f 6a82 643e a9b0 af3e
000002b0: 5d35 613e 5817 763f 59d7 40be 58c9 a0be
000002c0: 3645 a23e 96fd dabd dc5b e2bd 0dba 643e
000002d0: 0d03 2dbc 8947 883d 5b0f 63be a6b7 b93d
000002e0: a8a5 4e3f 8bb0 84be 21ce 67bf e0ee 98bc
000002f0: 8c35 d93d aa53 61be f40a ae3d d2a0 43bd
00000300: c0a5 283d f7f4 49be 68da 10bd 7001 b8be
00000310: bbde f1be 4ee4 95be 4866 33bd 76c8 d53d
00000320: 6a2c 553e e461 f33c 7ba0 f63d 78ef d2bd
00000330: 9979 d3bc 03a1 5b3b f0ff b6bd f25b b5bd
00000340: 967f 6e3e 3b26 843b c6e2 e43d 5305 2abf
00000350: 139e 1740 53a1 2abf 5523 c3bd bd10 43be
00000360: 4ab8 f83c 307d f13c 25ff dc3d 31a1 db3c
00000370: b602 7ebd c8c7 b0be 7e1c 2ebe e97c f5be
00000380: 28d5 28be 5e8f 323d df7e ab3b 244b 1dbe
00000390: a1a5 c73e b1b5 ec3f 1882 a43e f521 723e
000003a0: fe43 04be ae3a a3be 903b 1dbe 24b0 ce3c
000003b0: 9d4a a73e 2426 933e 04ab 5ebe f137 563e
000003c0: 44ca 083c 250c d03d 8d1c 99bc 2aed 5dbb
000003d0: 5801 563e 3d64 33be 3c83 e93d d33e 693e
000003e0: cf1d 853d ff8a 25be d9ba 503e 1fae b6bc
000003f0: 94bd 8fbe 61dd a9be 0aa9 ae3d 6527 9dbb

fc1.bias f4 [256]
-1.3753998 -0.61813366 -3.964089 -3.5202658 -2.3088062 -0.63799864 -3.3201103 0.37218297
-0.30962566 -1.9890158 -1.5735373 -1.1564218 -1.6353413 -0.9102921 -2.0794392 -3.362179
-2.1186967 -2.726194 -3.4444573 -0.07711528 -1.8707645 -2.161023 -2.1843495 0.07845485
-2.4616463 3.7978318 -2.1982071 -0.9492679 -1.8740644 -1.52244 -2.462327 -1.8750042
-2.0173535 -0.7694634 -1.458136 -2.8050203 -2.0831993 -2.0129488 -2.7980335 -1.4015555
-1.8218819 -2.5881763 -3.0371149 -2.2100558 -2.4266386 -0.2904038 -1.7648314 -2.059055
0.09063555 -1.0418807 -1.1577857 -2.2923732 -1.2144171 -2.103099 -1.8297056 -1.0651264
-2.1581697 3.8215802 -0.34478995 -0.62018865 -1.0261289 -3.1875365 -0.6521449 -1.4775487
-2.2546542 -1.0825454 -1.5323131 -2.7639787 -0.98972964 -1.5228958 -2.555705 -0.71180004
-0.72471285 -0.5402843 -0.5484677 -0.30892584 -0.82529676 0.14565602 -0.057686448 -0.5207711
-1.446117 -2.4793456 -1.897923 -2.179458 -1.7287529 -2.7039497 -2.2205465 -2.9115622
-1.4419771 -1.4020742 -1.3700473 -2.0402792 -0.9243216 -0.1815794 0.5835285 -1.590627
-0.97384477 -1.953573 -0.23698463 -1.4243308 -2.3363585 -0.9187093 -3.0561137 -3.37172
-4.9605465 -1.9091653 -0.40658084 -2.3591647 -1.3547056 -2.610734 -2.2479572 -1.9725735
-0.37158796 -1.5255766 -1.1161075 -1.192794 -1.5506753 -1.00077 -2.5605452 -0.010598091
-2.7720284 -1.3931797 -0.50813 -1.318056 -0.6153385 -2.1845114 -1.4711494 -1.4408048
0.035778128 -1.5375069 0.41878134 -0.7090911 -1.5388808 -2.6450815 -2.6800249 -2.751252
-0.50932175 -1.9969321 0.12179504 -2.733615 -1.9339299 -2.3532789 -1.83848 0.4528869
-0.21144783 -1.4109563 -2.0563958 -2.448313 -0.7019462 -1.3467493 -2.008183 -1.9311011
-3.073389 0.5257964 -1.508631 -1.094091 -2.113008 -1.3146862 -2.6557581 -1.671086
-0.04722286 -2.01476 -1.7350273 -1.7542042 -1.9217881 -2.3467727 -2.4257848 -1.7308874
-1.8676492 -1.8983953 -2.1141624 -1.0990448 -1.8342925 -1.837925 3.7513711 0.3111969
-1.1789064 -1.704567 -1.3066875 -2.4797332 -2.3194354 -2.3897684 -2.5784235 -1.9690734
-1.8973851 -2.2501328 -2.9131813 -1.3096858 -2.7195625 -2.8247085 0.40507728 -0.87104034
-2.060603 -3.5335362 -0.66060424 -0.26071712 1.1745496 0.08534958 -2.4221442 -3.1468787
-1.2167045 -0.8140813 -2.513415 -1.7608476 -1.9314078 -0.6416182 -1.4621671 -1.5810344
-3.3631136 -3.2765946 -2.126721 -2.5989947 -2.0017283 -3.4685965 -1.6191834 -2.5815105
-2.1670716 -1.9229207 -2.8476388 -1.6988174 -0.34681332 -2.4151032 -1.5759414 -2.0067804
-2.3300226 -1.6224014 -0.42912534 -1.7244242 -1.5700848 -2.1103907 -2.23866 -2.4444463
-0.5243298 -2.4384842 -0.94986683 -0.43973374 -1.3585199 -0.8404613 -1.3571799 -2.6833959
-1.3560413 -1.6198438 -0.7814515 -0.39565015 -2.0324786 -2.4641638 -2.4392712 -1.5726761
-2.2965076 0.024905412 -1.8657956 -3.3939903 -1.9025176 1.0399296 -0.7888142 -2.450463
00000000: 1a0d b0bf 023e 1ebf a2b3 7dc0 094c 61c0
00000010: 7bc3 13c0 e153 23bf b07c 54c0 c48e be3e
00000020: 4187 9ebe 1298 febf ac69 c9bf a105 94bf
00000030: dd52 d1bf e708 69bf 8815 05c0 f12d 57c0
00000040: ba98 07c0 f679 2ec0 fd71 5cc0 9eee 9dbd
00000050: 3675 efbf 334e 0ac0 62cc 0bc0 f0ac a03d
00000060: 9d8b 1dc0 ad0f 7340 6daf 0cc0 3903 73bf
00000070: 58e1 efbf 50df c2bf c496 1dc0 2300 f0bf
00000080: 521c 01c0 8efb 44bf 33a4 babf 7485 33c0
00000090: 2353 05c0 27d4 00c0 fb12 33c0 2c66 b3bf
000000a0: 6d33 e9bf aea4 25c0 1760 42c0 8e71 0dc0
000000b0: 0c4e 1bc0 cfaf 94be ffe5 e1bf 8fc7 03c0
000000c0: 229f b93d 595c 85bf 5232 94bf 3eb6 12c0
000000d0: 0572 9bbf 2d99 06c0 cb33 eabf 1056 88bf
000000e0: 741f 0ac0 c594 7440 4f88 b0be afc4 1ebf
000000f0: 3158 83bf 9900 4cc0 f8f2 26bf 5120 bdbf
00000100: 414c 10c0 d990 8abf d622 c4bf 07e5 30c0
00000110: ec5e 7dbf 40ee c2bf ac90 23c0 8738 36bf
00000120: c886 39bf 1250 0abf 6168 0cbf 872b 9ebe
00000130: a646 53bf da26 153e a048 6cbd 4151 05bf
00000140: 5d1a b9bf 99ad 1ec0 24ef f2bf 3d7c 0bc0
00000150: c647 ddbf 830d 2dc0 6f1d 0ec0 0957 3ac0
00000160: b592 b8bf 2b77 b3bf b65d afbf ef93 02c0
00000170: 57a0 6cbf f3ef 39be 2062 153f aa99 cbbf
00000180: e44d 79bf ae0e fabf 19ac 72be 7950 b6bf
00000190: e686 15c0 8830 6bbf 5e97 43c0 43ca 57c0
000001a0: ccbc 9ec0 875f f4bf 5d2b d0be 8efc 16c0
000001b0: fe66 adbf 4416 27c0 88de 0fc0 4a7d fcbf
000001c0: c740 bebe 1846 c3bf 9cdc 8ebf 79ad 98bf
000001d0: 877c c6bf 3b19 80bf f9df 23c0 9ea3 2dbc
000001e0: ea68 31c0 b653 b2bf cf14 02bf 0fb6 a8bf
000001f0: d386 1dbf 09cf 0bc0 a04e bcbf 4b6c b8bf
00000200: 168c 123d 07cd c4bf 826a d63e ff86 35bf
00000210: 0cfa c4bf 0449 29c0 8785 2bc0 8314 30c0
00000220: e962 02bf 799b ffbf ae6f f93d 8cf3 2ec0
00000230: 048b f7bf 1f9c 16c0 5053 ebbf cbe0 e73e
00000240: c885 58be 379a b4bf fd9b 03c0 29b1 1cc0
00000250: bfb2 33bf 4862 acbf 1286 00c0 522e f7bf
00000260: 68b2 44c0 989a 063f d21a c1bf 2d0b 8cbf
00000270: 863b 07c0 a347 a8bf f1f7 29c0 25e6 d5bf
00000280: c26c 41bd d4f1 00c0 6015 debf c389 e0bf
00000290: 27fd f5bf 8631 16c0 0f40 1bc0 b88d ddbf
000002a0: 210f efbf 9efe f2bf 704e 07c0 80ad 8cbf
000002b0: 19ca eabf 2041 ebbf 7716 7040 3355 9f3e
000002c0: 68e6 96bf 402f dabf 8941 a7bf f3b3 1ec0
000002d0: a171 14c0 f7f1 18c0 e404 25c0 990a fcbf
000002e0: 84dd f2bf 2d02 10c0 9071 3ac0 c9a3 a7bf
000002f0: 500d 2ec0 06c8 34c0 4a66 cf3e 80fc 5ebf
00000300: ebe0 03c0 7525 62c0 5c1d 29bf b77c 85be
00000310: a457 963f c3cb ae3d 6904 1bc0 7666 49c0
00000320: f9bc 9bbf a267 50bf cbdb 20c0 7463 e1bf
00000330: 5f38 f7bf 1741 24bf 4b28 bbbf 565f cabf
00000340: 413d 57c0 bab3 51c0 321c 08c0 ee55 26c0
00000350: 511c 00c0 7cfd 5dc0 6741 cfbf 7837 25c0
00000360: 4db1 0ac0 4422 f6bf b73f 36c0 d972 d9bf
00000370: 8491 b1be 0d91 1ac0 73b8 c9bf 176f 00c0
00000380: 171f 15c0 d9aa cfbf 51b6 dbbe efb9 dcbf
00000390: 8af8 c8bf a410 07c0 3546 0fc0 cf71 1cc0
000003a0: 7a3a 06bf 2010 1cc0 792a 73bf c824 e1be
000003b0: fbe3 adbf 7928 57bf 12b8 adbf c2bc 2bc0
000003c0: c392 adbf 0b57 cfbf 350d 48bf a892 cabe
000003d0: 2114 02c0 dcb4 1dc0 051d 1cc0 734d c9bf
000003e0: fbf9 12c0 6f06 cc3c 64d2 eebf 2337 59c0
000003f0: b285 f3bf 6a1c 853f baef 49bf 63d4 1cc0

fc2.weight f4 [256, 256]
-0.3119949 -0.5253668 -1.1116599 -0.9156345 0.47020304 -0.13910192 -0.6955338 -0.174184
0.5721631 0.12209205 -0.27416012 -0.10535296 0.4708863 0.15564722 -1.0939178 -0.2707259
0.5702963 0.26793322 -1.0965272 -1.6024843 1.2886786 -0.042478725 0.46844956 -4.171731
-1.1467987 -0.0700047 0.17363213 0.27418885 0.3674963 0.3214847 -0.3480734 0.32308236
-0.93629295 -7.4137444 -0.69984186 -0.10932901 -1.1940343 0.38363066 0.5621046 1.1766579
0.60874933 -0.5421573 0.41836902 -0.003181834 0.41324973 -3.0211937 -0.09528023 1.181726
0.4899356 -0.36860818 -0.1344264 0.5604973 -0.27413958 -0.12742072 -0.026904067 -0.6843872
-0.14517143 0.22864401 0.75693494 -0.073086366 -0.9537419 -0.62379223 0.084704824 0.79235893
0.23580065 0.4754374 -0.61002237 -0.7050545 -0.12431428 0.08177435 0.7908302 0.7495042
0.16932246 -0.07799823 -0.38260075 0.061450336 1.2789346 -0.554661 -2.892723 0.42327064
0.26780856 -0.1623552 -0.07267367 0.31306377 -0.06779478 0.7436668 1.0730491 -0.4095278
-0.2733088 -0.3045842 -0.22568256 -0.6106825 0.6616488 -0.33935884 -0.38681486 0.045518786
-0.30832922 -0.012964043 0.13421342 -0.6553823 0.2747126 0.38407707 0.008859499 0.015725194
-1.1999366 0.9327993 -0.061536033 0.16021346 1.5442405 0.20714825 0.13986486 -0.2665097
-1.2377938 -0.13609348 -0.15983166 0.58775944 0.06895612 -0.34526753 0.84767073 0.08826669
0.3580616 -0.14609173 -0.39559418 0.4102939 0.64675653 -0.7967719 -0.08691349 1.5538517
0.4956132 0.71187603 0.58482367 -1.3236983 0.5982813 0.3637581 -0.097539745 0.10423101
-0.7268729 0.70678884 0.3222904 -1.2220728 0.16108432 0.009932689 1.5090953 -0.7667857
-0.15480843 1.9232365 0.05918161 0.2374404 0.7608089 -0.10317573 0.49736634 0.17440586
0.6734088 0.34166804 0.14721566 0.9711338 0.2687384 0.026079355 0.07286988 -0.33594695
1.2272421 0.23905288 0.3155531 -0.4245252 -0.62724304 -0.20504075 -0.20490848 0.42238235
0.28171447 -0.2623571 -0.14196788 -0.3704717 0.22168863 0.7233256 0.03852938 0.84556
0.43959203 0.84743917 0.38495383 0.721313 -0.2336228 -0.048393305 0.7063533 -0.6999936
0.27305394 -0.41935596 0.47217113 0.5035562 -1.1904352 0.23432142 -0.0002666689 0.13051362
-0.5269936 -0.6706227 -0.14215834 -0.5108924 -0.61679184 -2.2474935 -2.174475 0.8836457
0.42137638 0.42769003 -0.48604053 0.11541756 -0.14745824 0.28675035 -0.53312314 0.22244404
-0.68629915 0.49960136 0.42836148 0.8770145 -1.1338677 0.73658013 0.7391717 -0.5952822
0.18324155 0.3429094 -0.3373934 0.34014693 0.19084024 0.062388267 -0.14649497 -0.49181083
-0.95728946 0.47543767 -1.3292273 -0.34375286 -0.5502675 -0.018292677 1.1060554 -0.09365371
-0.17773949 0.69620425 -0.18098745 -0.7813064 -0.23717985 -1.8788738 0.046923697 -0.25676528
-0.5900993 0.70068896 -0.38132766 -1.5770507 -0.56455094 -2.3728912 -1.9973279 0.035432827
0.8833958 -0.29532513 0.44920748 0.35448164 0.31607953 0.0020375857 0.25608906 -0.6837559
00000000: ccbd 9fbe 707e 06bf df4a 8ebf 0667 6abf
00000010: 74be f03e bc70 0ebe 810e 32bf 4a5d 32be
00000020: 4879 123f 660b fa3d b75e 8cbe 4bc3 d7bd
00000030: 0218 f13e fc61 1f3e 8005 8cbf 969c 8abe
00000040: f0fe 113f 8b2e 893e 015b 8cbf 351e cdbf
00000050: 6cf3 a43f 2cfe 2dbd 9fd8 ef3e d27e 85c0
00000060: 4dca 92bf a05e 8fbd 9fcc 313e 7b62 8c3e
00000070: 7a28 bc3e a599 a43e ad36 b2be 0d6b a53e
00000080: e5b0 6fbf 653d edc0 d628 33bf e3e7 dfbd
00000090: 1ed6 98bf 3d6b c43e 16e6 0f3f ba9c 963f
000000a0: ffd6 1b3f d2ca 0abf 7734 d63e 5186 50bb
000000b0: 7895 d33e 3d5b 41c0 4822 c3bd cc42 973f
000000c0: d7d8 fa3e 36ba bcbe 13a7 09be c07c 0f3f
000000d0: 065c 8cbe 947a 02be eb65 dcbc 0034 2fbf
000000e0: d2a7 14be a821 6a3e 7dc6 413f 4eae 95bd
000000f0: 6e28 74bf d9b0 1fbf b979 ad3d 09d8 4a3f
00000100: ba75 713e 886c f33e 6d2a 1cbf 747e 34bf
00000110: 7c98 febd 4f79 a73d d973 4a3f 82df 3f3f
00000120: de62 2d3e 89bd 9fbd 3fe4 c3be 59b3 7b3d
00000130: 21b4 a33f 43fe 0dbf 6022 39c0 eeb6 d83e
00000140: 341e 893e 7140 26be efd5 94bd e549 a03e
00000150: fdd7 8abd f360 3e3f ac59 893f a1ad d1be
00000160: 22ef 8bbe 76f2 9bbe 5419 67be b055 1cbf
00000170: d161 293f 71c0 adbe 990c c6be e871 3a3d
00000180: 54dd 9dbe 2367 54bc 3e6f 093e 22c7 27bf
00000190: 21a7 8c3e c0a5 c43e 6f27 113c 1fd2 803c
000001a0: 8697 99bf efcb 6e3f 350d 7cbd ff0e 243e
000001b0: aca9 c53f ac1e 543e bc38 0f3e f673 88be
000001c0: 0770 9ebf 175c 0bbe e9aa 23be 6777 163f
000001d0: de38 8d3d e8c6 b0be f300 593f 2bc5 b43d
000001e0: da53 b73e 1299 15be 528b cabe 0b12 d23e
000001f0: d691 253f 3ef9 4bbf b3ff b1bd 9de4 c63f
00000200: 03c1 fd3e 823d 363f 01b7 153f f26e a9bf
00000210: f728 193f 803e ba3e ebc2 c7bd 1177 d53d
00000220: 5814 3abf 1df0 343f 3f03 a53e e26c 9cbf
00000230: 4af3 243e b8bc 223c 092a c13f 114c 44bf
00000240: 1a86 1ebe 9d2c f63f 6a68 723d 9423 733e
00000250: 5fc4 423f cc4d d3bd cda6 fe3e 7397 323e
00000260: 8564 2c3f 1def ae3e b4bf 163e 3a9c 783f
00000270: 1498 893e 5fa4 d53c ce3c 953d 3d01 acbe
00000280: 4516 9d3f 47ca 743e 2d90 a13e 5e5b d9be
00000290: 0093 20bf 34f6 51be 87d3 51be 8042 d83e
000002a0: e13c 903e ab53 86be 0760 11be 77ae bdbe
000002b0: 5802 633e de2b 393f fcd0 1d3d 9f76 583f
000002c0: 3512 e13e c6f1 583f ab18 c53e f8a7 383f
000002d0: d13a 6fbe 0f38 46bd 92d3 343f c832 33bf
000002e0: bacd 8b3e d3b5 d6be 6ac0 f13e 0fe9 003f
000002f0: 2e60 98bf f4f1 6f3e b2cf 8bb9 5da5 053e
00000300: 0de9 06bf eead 2bbf f591 11be d8c9 02bf
00000310: 12e6 1dbf efd6 0fc0 992a 0bc0 9b36 623f
00000320: a5be d73e 30fa da3e 4eda f8be 0b60 ec3d
00000330: 4bff 16be f1d0 923e c27a 08bf 5fc8 633e
00000340: 4db1 2fbf c0cb ff3e 3252 db3e 0684 603f
00000350: 9422 91bf 8490 3c3f 5b3a 3d3f 6a64 18bf
00000360: aca3 3b3e d291 af3e d4be acbe bd27 ae3e
00000370: a06b 433e d78a 7f3d c702 16be a1ce fbbe
00000380: ec10 75bf 916c f33e 1f24 aabf 6000 b0be
00000390: 55de 0cbf 86da 95bc 3993 8d3f 84cd bfbd
000003a0: 5701 36be 713a 323f c654 39be b203 48bf
000003b0: 46df 72be f07e f0bf 1033 403d bd76 83be
000003c0: bf10 17bf 5a60 333f 613d c3be ccdc c9bf
000003d0: 6986 10bf 73dd 17c0 71a8 ffbf 0322 113d
000003e0: 3a26 623f db34 97be 86fe e53e 9e7e b53e
000003f0: 2dd5 a13e 0489 053b 1b1e 833e a00a 2fbf

fc2.bias f4 [256]
-0.7192764 -0.74118596 -0.30279976 -0.047877964 -0.08897009 0.6178689 0.31902656 -0.94955724
-0.082410105 -1.5304912 0.15116452 -0.2201685 0.60199 -0.12115574 -0.58723336 -0.06708259
-0.777081 -1.9270935 1.1804888 0.11818277 -0.3106799 -0.31532025 0.58544827 0.75966036
-0.9504309 0.1955682 -0.58041686 -1.63953 -0.16600819 -0.0048362203 -2.5550199 -0.36546135
-0.99014497 -0.07748334 -0.12993783 -0.8537397 0.8775876 -0.14570737 -1.4803723 1.232431
0.47796157 -1.359872 -0.88597316 -0.47758704 -0.4268118 -0.9473466 -1.0044597 -2.7184293
-0.094257064 0.41471776 -0.6184844 -1.3145437 -0.17511283 -0.5800197 -1.6759655 -0.58813196
0.013622918 -0.110031106 -0.07496324 -0.83471614 1.25937 0.65678304 -0.09917047 0.11505168
0.6463717 -0.10174292 -0.89283407 0.96995974 0.38330114 -0.2224429 0.6167013 -0.61882335
0.018885918 -0.08402136 0.046708222 -0.54137886 -0.9782567 -0.62118024 -0.6015891 0.2983107
0.22518422 -0.99160874 0.4397374 0.72375643 0.22493652 -0.5659648 0.3571634 -0.7699986
-1.2256297 -0.0713732 0.16223715 -0.022376837 -1.9705338 0.055954218 -0.7749009 -1.7394913
-0.079594776 -1.1050521 -0.16100326 -3.456385 -0.5596437 -0.09605325 -0.31627488 -5.200477
-0.2565052 -0.015184557 0.4205515 -1.5646685 -0.08901933 -1.7196811 -1.7011029 -0.9582947
-0.012503657 0.26300627 -0.7773562 -0.21071938 -0.18202385 -2.0136876 -0.2743328 -1.2302449
-0.09245505 -0.17531054 -0.06510537 0.30530223 0.4346117 -0.14390926 -1.7147925 -1.1141901
-0.53918946 0.4924932 -0.030850481 -0.015150232 1.5108039 0.5166438 -0.01727326 -2.0714917
-0.39294997 -0.8356945 -0.6402689 0.18844877 -0.2180366 -0.13550945 -0.10183721 -0.16755378
-1.0213473 -0.055691108 0.4242142 -1.6079605 -1.8173382 -0.15472025 -1.1426862 -1.7557993
0.3157879 -1.0529734 -0.093718074 0.4284291 -1.6566811 -0.4337503 -0.47289446 -1.8705276
-0.010567078 0.30190325 -0.5568948 -0.09388602 -3.7201374 0.17626722 -0.3848322 0.3065549
0.40299758 -0.11916936 -2.2843564 -1.1821151 0.33304724 0.5353804 0.72161424 -0.80515426
-0.0701422 -0.5994095 -0.588186 -1.5026089 0.15511103 0.019411698 -0.20792717 -0.55085605
-0.5518625 -1.5461195 -0.067744575 -0.7271363 -1.2964747 -1.3680342 -0.77997535 -0.07276862
-0.10597331 0.024942784 -0.6872715 -1.0804526 -0.043274067 -0.5786724 -1.5021747 -0.86676157
-0.071936205 -0.07295912 0.41799405 1.13055 -0.07097629 -0.2305234 0.8789718 0.70702547
-1.8710132 -0.13501523 0.18420672 -1.0490893 -0.2815779 -0.71053916 -0.12199315 -0.32930273
-1.5895709 -1.4606634 -0.7034315 0.57713556 -0.8589096 -0.96534663 -0.75026035 -0.6817422
-0.10552228 -0.81169254 0.6938362 -0.64576054 0.7952695 -0.100683175 -1.1755899 -0.055998184
0.6118152 -2.316242 -0.035453886 -1.1607132 -0.7991104 -0.055105146 0.4091909 0.0041915006
-0.5479109 -0.09987604 -1.1898353 0.80441135 -0.18455055 -0.038292546 0.3424381 -0.5135305
-0.45145616 -0.08725475 0.017359225 0.016099598 0.22644672 -0.6849675 0.49556488 -0.6095468
00000000: 8022 38bf 5dbe 3dbf 9208 9bbe af1b 44bd
00000010: f335 b6bd a82c 1e3f 7357 a33e 2f16 73bf
00000020: a1c6 a8bd 23e7 c3bf dfca 1a3e da73 61be
00000030: 041c 1a3f 8020 f8bd ed54 16bf 9962 89bd
00000040: c8ee 46bf 00ab f6bf 421a 973f cf09 f23d
00000050: 7011 9fbe a871 a1be f0df 153f 1a79 423f
00000060: 714f 73bf 0843 483e 3396 14bf 1edc d1bf
00000070: 0dfe 29be 2879 9ebb 7285 23c0 c01d bbbe
00000080: 247a 7dbf 96af 9ebd 6c0e 05be af8e 5abf
00000090: 95a9 603f 5034 15be d77c bdbf 4dc0 9d3f
000000a0: 61b7 f43e 4910 aebf 23cf 62bf 4a86 f4be
000000b0: 1487 dabe 4f85 72bf 2392 80bf bffa 2dc0
000000c0: d909 c1bd e355 d43e fe54 1ebf f842 a8bf
000000d0: c750 33be 2c7c 14bf 0a86 d6bf d18f 16bf
000000e0: a932 5f3c fd57 e1bd 5486 99bd f5af 55bf
000000f0: 0933 a13f ef22 283f e319 cbbd 37a0 eb3d
00000100: 9e78 253f 985e d0bd c690 64bf 484f 783f
00000110: 0c40 c43e 12c8 63be 23e0 1d3f 356b 1ebf
00000120: a4b6 9a3c 6413 acbd 1f51 3f3d ce97 0abf
00000130: 086f 7abf ab05 1fbf be01 1abf 2ebc 983e
00000140: b196 663e 12da 7dbf 4325 e13e 1a48 393f
00000150: c255 663e 12e3 10bf 1fde b63e a11e 45bf
00000160: 6fe1 9cbf 1d2c 92bd 7f21 263e a14f b7bc
00000170: 743a fcbf 4030 653d e85f 46bf a7a7 debf
00000180: 9602 a3bd 5972 8dbf 0ade 24be 6935 5dc0
00000190: cf44 0fbf 91b7 c4bd c8ee a1be 4f6a a6c0
000001a0: a654 83be a6c8 78bc 8752 d73e 0f47 c8bf
000001b0: c44f b6bd 831e dcbf bdbd d9bf cd52 75bf
000001c0: 23dc 4cbc c2a8 863e d100 47bf d2c6 57be
000001d0: 7664 3abe 42e0 00c0 5975 8cbe aa78 9dbf
000001e0: 1359 bdbd 9b84 33be f755 85bd 9350 9c3e
000001f0: 6d85 de3e f35c 13be 527e dbbf c89d 8ebf
00000200: 5208 0abf 1228 fc3e 26ba fcbc ae38 78bc
00000210: 0662 c13f c542 043f a780 8dbc 5293 04c0
00000220: bd30 c9be 13f0 55bf aae8 23bf b7f8 403e
00000230: fd44 5fbe fdc2 0abe 0790 d0bd 3893 2bbe
00000240: 82bb 82bf 5c1c 64bd 9b32 d93e a6d1 cdbf
00000250: 8a9e e8bf fc6e 1ebe 8b43 92bf 08be e0bf
00000260: f4ae a13e d5c7 86bf 43ef bfbd 0f5b db3e
00000270: 200e d4bf 8514 debe 391f f2be 736d efbf
00000280: 8a21 2dbc 1093 9a3e a890 0ebf 5047 c0bd
00000290: bb16 6ec0 657f 343e ba08 c5be c4f4 9c3e
000002a0: b355 ce3e 110f f4bd e532 12c0 8c4f 97bf
000002b0: 2b85 aa3e b10e 093f b6bb 383f 971e 4ebf
000002c0: b7a6 8fbd e772 19bf 5c93 16bf 7d55 c0bf
000002d0: 6dd5 1e3e 4805 9f3c dcea 54be e704 0dbf
000002e0: dc46 0dbf 3ee7 c5bf abbd 8abd 9b25 3abf
000002f0: e2f2 a5bf bf1b afbf 77ac 47bf b707 95bd
00000300: 8908 d9bd cf54 cc3c 06f1 2fbf 454c 8abf
00000310: 2640 31bd e023 14bf 4347 c0bf 16e4 5dbf
00000320: 4a53 93bd 976b 95bd 5103 d63e ddb5 903f
00000330: 045c 91bd 530e 6cbe 4c04 613f 9fff 343f
00000340: 5c7d efbf 6f41 0abe b0a0 3c3e 8f48 86bf
00000350: fa2a 90be e5e5 35bf 8bd7 f9bd 5e9a a8be
00000360: 0f77 cbbf 05f7 babf 1614 34bf 28bf 133f
00000370: 80e1 5bbf f520 77bf 1011 40bf a886 2ebf
00000380: 111c d8bd 15cb 4fbf 409f 313f 9050 25bf
00000390: c896 4b3f fb32 cebd bb79 96bf 5a5e 65bd
000003a0: ec9f 1c3f 4f3d 14c0 1838 11bd 4092 94bf
000003b0: 8092 4cbf efb5 61bd 7881 d13e db58 893b
000003c0: e443 0cbf cf8b ccbd 864c 98bf e7ed 4d3f
000003d0: d2fa 3cbe a5d8 1cbd 0c54 af3e bc76 03bf
000003e0: 4325 e7be 9eb2 b2bd ef34 8e3c 4ee3 833c
000003f0: a6e1 673e 085a 2fbf aeba fd3e 420b 1cbf

fc3.weight f4 [256, 256]
-0.7916931 -0.0774403 -0.47233588 -0.002852638 -0.04446739 -0.7026477 -1.3672804 -7.9095445
0.008140194 -0.7024525 0.17921406 -2.1608677 0.13489074 0.06324026 -0.7768089 -0.04550681
0.26144853 -1.8566949 -0.6286729 -0.3232141 -0.0276326 -0.31364316 -1.1351366 -0.17157993
-0.28635135 -0.8706522 -0.24068339 -0.29601428 -1.4435225 -0.072530314 -1.2685361 -1.2386556
-1.2170323 0.1117619 -0.46803814 0.107764415 -0.91140175 -1.8912356 -0.47433552 0.32445326
0.21275744 -7.5484014 -0.5976275 -0.38197693 0.44956285 -0.74924904 -0.25525746 -0.10492256
-0.045760203 -0.4401493 0.010223744 -0.21835482 -1.341284 0.35056135 -0.048874747 -0.36317298
-1.2369686 -0.034935538 0.0033141968 -0.45749885 -0.48611784 -0.22001949 0.35464555 -0.6895058
-0.032681186 0.01612755 -1.351853 0.059886854 -0.31932148 -1.0889002 0.14845517 -0.0073971706
0.022144075 -0.031863283 -1.5769851 -0.436728 -0.35726935 -1.2688274 -0.3864507 0.51033646
-0.5031534 0.115372494 -0.70635635 0.101573214 0.07958804 -0.7994131 -0.49770603 -0.047270987
0.29095924 -0.08690484 -0.48603675 -0.77289206 -0.3488876 -1.9511809 -0.082834154 -0.4266083
0.08208566 -0.7235304 -0.17160675 0.3745442 -0.74096024 0.038229078 -0.5480532 -1.2574131
0.21004921 0.06286822 0.54464835 0.41499743 0.010965148 -0.58095133 -0.3876828 -0.32710052
-0.040025026 -0.34282324 -0.66904515 -0.15954731 -0.8303565 -0.41376922 -0.83519757 0.11066529
-0.024312712 -0.49735895 -0.011445289 -0.943631 0.2695947 0.0368587 0.07350112 -0.9656227
-1.788564 -0.50273687 0.089403324 -1.6508316 0.4660634 -0.49941602 -0.0014767915 -0.25297397
-0.5783018 -0.49015838 -0.3903555 -0.66190714 -5.687169 0.05258228 -0.020764902 0.114521846
-1.9844006 -0.054621805 0.14726137 -0.9126008 -1.4629588 0.021182582 -0.043019805 0.4636403
-4.0921483 -0.43589598 0.038986668 0.7463079 0.12171802 -0.04379313 0.26080737 -0.45549166
0.04302101 0.36700815 0.025964754 -0.056843016 -0.59786594 -0.6298451 0.25283033 -0.024778789
-0.72715026 -0.5594352 -1.1512122 -0.18333377 -0.9770469 0.074712664 -0.946538 0.2558291
0.009115732 0.071995646 -0.136888 -0.34461778 0.14233889 0.07693361 0.73630387 0.11852813
-0.09122415 -0.34595346 0.016849913 -1.6670479 -0.05643359 0.21177341 -0.056575347 0.097871654
-0.11058704 -0.71815616 -0.0709759 -0.5197511 -0.069565535 -1.03426 -0.36440182 -1.0348697
-0.04998258 -0.029156229 -0.79009867 -0.35523415 0.05888609 -0.18761684 0.32068148 -0.45439205
-0.4028207 -0.06596269 -1.0977762 -0.71643174 -0.16117115 -0.09227103 -0.013945635 -0.5603485
-0.1980749 -0.9542755 -0.023840941 -1.2343038 -0.4029606 -0.3004844 -0.453161 -0.91693294
-0.29032594 -3.4906876 -1.7547648 0.42063186 -1.0843728 0.052936636 -6.8655233 -0.038761802
-1.3317842 -0.74638575 -0.049883083 -2.0178223 -0.5725771 -0.13201046 -1.7327229 -0.5230245
-0.5570144 -0.07375435 -1.7047333 0.41168228 0.05852785 -0.047933 0.59197015 0.90719014
0.28545812 0.052495833 -0.006996394 0.019504052 0.25916427 0.024202127 0.13189283 -0.025157295
00000000: 66ac 4abf 0599 9ebd 02d6 f1be 53f3 3abb
00000010: 7023 36bd b8e0 33bf 0b03 afbf fd1a fdc0
00000020: 735e 053c edd3 33bf e483 373e a84b 0ac0
00000030: cc20 0a3e 1c84 813d f3dc 46bf 5965 3abd
00000040: 95dc 853e 2ea8 edbf b5f0 20bf 527c a5be
00000050: c35d e2bc d695 a0be 284c 91bf a6b2 2fbe
00000060: a59c 92be 10e3 5ebf b575 76be 2f8f 97be
00000070: 58c5 b8bf c68a 94bd 645f a2bf 448c 9ebf
00000080: b7c7 9bbf 6ce3 e43d b2a2 efbe 97b3 dc3d
00000090: a051 69bf 0214 f2bf 1bdc f2be bd1e a63e
000000a0: 16dd 593e 818c f1c0 1efe 18bf 7b92 c3be
000000b0: 1a2d e63e c9ce 3fbf 1bb1 82be a4e1 d6bd
000000c0: 0d6f 3bbd 405b e1be 7e81 273c 6898 5fbe
000000d0: 32af abbf c77c b33e e330 48bd cff1 b9be
000000e0: fd54 9ebf 9118 0fbd ff32 593b 4a3d eabe
000000f0: 70e4 f8be ca4c 61be 1a94 b53e 7483 30bf
00000100: b5dc 05bd ec1d 843c 8509 adbf eb4b 753d
00000110: 1b7e a3be 1561 8bbf a204 183e f763 f2bb
00000120: 7e67 b53c 1383 02bd a6da c9bf d09a dfbe
00000130: 02ec b6be f068 a2bf dedc c5be 69a5 023f
00000140: a9ce 00bf 6a48 ec3d c5d3 34bf 9e05 d03d
00000150: 0eff a23d 56a6 4cbf 53d3 febe 399f 41bd
00000160: 9cf8 943e 2afb b1bd cfd9 f8be 41dc 45bf
00000170: 65a1 b2be 4cc0 f9bf f4a4 a9bd 676c dabe
00000180: 871c a83d 4a39 39bf aeb9 2fbe 42c4 bf3e
00000190: 92af 3dbf 1896 1c3d 374d 0cbf eaf2 a0bf
000001a0: 2417 573e 0ec1 803d 136e 0b3f 8b7a d43e
000001b0: 2aa7 333c 3ab9 14bf 5c7e c6be b879 a7be
000001c0: 48f1 23bd 8786 afbe 8b46 2bbf 5f60 23be
000001d0: 3e92 54bf 8fd9 d3be 82cf 55bf 7ca4 e23d
000001e0: 742b c7bc d5a5 febe 0585 3bbc cd91 71bf
000001f0: 5108 8a3e 26f9 163d c187 963d 0d33 77bf
00000200: aaef e4bf 5db3 00bf 1719 b73d 734e d3bf
00000210: dd9f ee3e 75b3 ffbe e690 c1ba ce85 81be
00000220: 960b 14bf 0af6 fabe addc c7be bf72 29bf
00000230: 4afd b5c0 8460 573d 281b aabc 6e8a ea3d
00000240: d700 febf 1dbb 5fbd afcb 163e 35a0 69bf
00000250: 3c42 bbbf 1887 ad3c 8935 30bd 4362 ed3e
00000260: e1f2 82c0 c22d dfbe 7cb0 1f3d 090e 3f3f
00000270: 4c47 f93d 6d60 33bd 8b88 853e 3436 e9be
00000280: cc36 303d 7ee8 bb3e 09b4 d43c 39d4 68bd
00000290: be0d 19bf 873d 21bf fa72 813e e3fc cabc
000002a0: 8526 3abf 2537 0fbf ec5a 93bf d9bb 3bbe
000002b0: bf1f 7abf f402 993d 5050 72bf 08fc 823e
000002c0: 275a 153c 7472 933d 5e2c 0cbe be71 b0be
000002d0: 49c1 113e 5e8f 9d3d 697e 3c3f e0be f23d
000002e0: bad3 babd d020 b1be d408 8a3c d361 d5bf
000002f0: e826 67bd 21db 583e 8dbb 67bd ef70 c83d
00000300: 757b e2bd 15d9 37bf d05b 91bd 680e 05bf
00000310: 6078 8ebd a262 84bf e092 babe 9c76 84bf
00000320: 89ba 4cbd 0bd9 eebc e843 4abf 40e1 b5be
00000330: 8a32 713d a11e 40be 5d30 a43e 13a6 e8be
00000340: 843e cebe 7217 87bd ee83 8cbf 1268 37bf
00000350: 0d0a 25be 98f8 bcbd 3c7c 64bc 0073 0fbf
00000360: 26d4 4abe 664b 74bf 144e c3bc abfd 9dbf
00000370: da50 cebe 17d9 99be b804 e8be 1ebc 6abf
00000380: 9aa5 94be 6d67 5fc0 229c e0bf 0f5d d73e
00000390: bacc 8abf 16d4 583d 5eb2 dbc0 b2c4 1ebd
000003a0: e877 aabf 2313 3fbf 3452 4cbd 0024 01c0
000003b0: 6a94 12bf c02d 07be ddc9 ddbf efe4 05bf
000003c0: 7f98 0ebf 850c 97bd b334 dabf 05c8 d23e
000003d0: e6ba 6f3d 6555 44bd 5b8b 173f 9d3d 683f
000003e0: 9127 923e df05 573d 0242 e5bb f6c6 9f3c
000003f0: 2eb1 843e 8a43 c63c ea0e 073e ac16 cebc

fc3.bias f4 [256]
-0.14285347 -1.6642736 -1.018026 0.5091947 -0.3192836 0.4101637 -2.3146338 0.2980718
-0.1037107 1.4334419 -2.906793 -1.0065849 -1.3522971 0.21526864 -0.41723254 -1.1955214
-3.1443248 -0.5883823 -1.9719958 -1.3799077 -1.4147707 -2.0004294 0.19693884 -2.2696843
-0.13321124 -1.7987521 0.610966 -1.4425659 -0.25848994 -5.43377 -1.4664413 0.5038242
-0.054444116 -0.30436143 -2.2376835 0.53356975 -1.6755434 -0.2687377 0.023600252 -0.24179754
-1.1444362 -0.17306784 -1.6213385 -3.8172154 -0.97840977 -1.6949649 -1.8608258 -2.168313
-0.104740344 0.8397948 -1.1625243 -1.4750141 -1.5297881 0.67530566 -2.671685 -2.5948348
-1.1177973 -1.9250047 -0.6064852 -1.9933962 -0.6311422 2.1683502 -2.3254654 -0.47309333
0.26664203 1.5715582 -0.7433862 -0.5894006 0.69619435 0.37296793 -0.27498555 -1.7001244
-1.11669 -0.463401 1.1708988 -0.07623269 -0.62586564 -0.008838135 0.5764789 -1.6898366
-0.5710299 0.8705863 -0.42432114 -1.1310333 -1.756619 0.25771257 -1.574103 -0.8771208
-1.8839643 0.052635662 -0.46116045 -1.7608317 -0.46972343 0.39170992 0.59072787 0.63828576
-0.32737502 -3.5001254 -3.2792516 -0.41628957 -1.8562634 -1.349669 1.1343672 0.89881206
-1.0369624 -0.23820862 -1.4476286 0.6012011 -0.016849248 -0.84024966 -0.76034904 0.12542488
-0.25864112 -3.3704627 -1.6783962 0.43487358 -0.60673815 -1.6547388 -0.80062246 -1.8765734
-0.78288347 -1.4609321 -1.5980663 -1.383362 -3.564595 -1.2385197 -1.2568512 -0.5310055
-1.0134957 -0.93799776 -0.56241506 -3.0086503 -2.3793752 0.6850774 -1.6443013 0.01865282
-1.8538845 -1.5690913 -1.5107689 0.77491 -0.9933585 -1.3301427 -1.4056588 -2.7881799
-1.4055712 -1.4617635 -0.8045808 -2.1591609 -0.42331925 -1.7241738 -1.8500863 -1.2457508
0.33033654 -0.4595433 -1.258726 -2.2701738 -2.92441 -0.96578 -0.7112396 -2.0607502
0.63513154 -1.5381943 -3.769197 -0.6931024 -1.017548 -2.474552 -2.4865005 -0.8558633
-1.2742828 0.96386707 0.4450232 -0.38279688 -1.111144 0.797223 -2.2119637 1.0704867
-0.7846491 -1.7091981 0.0063887313 0.33062634 -1.2869109 0.46240348 -0.79025716 -1.4541348
-1.4133651 -0.2503025 -1.566276 1.0966709 -1.181403 -0.9716846 0.074652925 -3.7586586
-1.4497783 -2.8178253 -0.93399173 1.1958194 -1.8347545 -0.3756496 -0.5789612 -0.55848414
-0.6977288 -1.4287391 0.5363507 0.48336825 0.18292724 -1.3915082 -0.42708206 -3.3544905
-1.6121519 1.1333518 0.2707484 0.32226458 1.1318026 0.40571338 0.6102043 -0.9465832
-0.6691372 -1.46583 -0.27302438 -0.617761 -0.93075794 -2.2779238 0.9674646 -3.1377673
-2.3246505 -0.9924983 -1.6100317 -0.51058775 -0.3632806 0.010678215 -0.46310946 -1.6081345
-1.2846332 -0.21243203 -2.0228016 -0.31765357 -1.5338572 0.15654634 0.8665167 -1.3799561
-2.9408054 -1.3141825 1.3993778 1.2137972 -1.8272866 -2.1232314 0.48479792 0.053944394
-1.0218865 -0.30918655 0.7351553 -1.6624047 -2.0916686 0.05684833 -0.7370697 1.0965614
00000000: 2e48 12be eb06 d5bf ad4e 82bf 955a 023f
00000010: 2479 a3be fa00 d23e f622 14c0 de9c 983e
00000020: 4766 d4bd 067b b73f e608 3ac0 c6d7 80bf
00000030: 1218 adbf 626f 5c3e 819f d5be d806 99bf
00000040: 9e3c 49c0 39a0 16bf 5c6a fcbf d1a0 b0bf
00000050: 3517 b5bf 0907 00c0 56aa 493e 8242 11c0
00000060: 8768 08be 823d e6bf 4568 1c3f 00a6 b8bf
00000070: cb58 84be 72e1 adc0 59b4 bbbf 9ffa 003f
00000080: cb00 5fbd 43d5 9bbe 3536 0fc0 0798 083f
00000090: 3578 d6bf fd97 89be 5155 c13c c699 77be
000000a0: e37c 92bf b238 31be 0588 cfbf 424d 74c0
000000b0: 1079 7abf 9cf4 d8bf 8a2f eebf a4c5 0ac0
000000c0: 1b82 d6bd cbfc 563f 99cd 94bf 43cd bcbf
000000d0: 19d0 c3bf d5e0 2c3f e3fc 2ac0 c611 26c0
000000e0: fb13 8fbf 8e66 f6bf 9d42 1bbf 9b27 ffbf
000000f0: 8992 21bf 40c6 0a40 6dd4 14c0 4a39 f2be
00000100: 4e85 883e d228 c93f 8f4e 3ebf f5e2 16bf
00000110: cb39 323f a7f5 be3e e8ca 8cbe ad9d d9bf
00000120: b3ef 8ebf e542 edbe 03e0 953f e21f 9cbd
00000130: bb38 20bf d3cd 10bc 1f94 133f 914c d8bf
00000140: 042f 12bf bede 5e3f 9f40 d9be b3c5 90bf
00000150: e4d8 e0bf e7f2 833e 357c c9bf fd8a 60bf
00000160: be25 f1bf 7e98 573d 391d ecbe ef62 e1bf
00000170: 977f f0be 348e c83e f139 173f b266 233f
00000180: b39d a7be 0e02 60c0 42df 51c0 e823 d5be
00000190: 0a9a edbf f4c1 acbf f232 913f 8c18 663f
000001a0: 2fbb 84bf f6ec 73be e54b b9bf 51e8 193f
000001b0: 6f07 8abc 9a1a 57bf 3ca6 42bf 616f 003e
000001c0: 9c6c 84be a9b5 57c0 b0d5 d6bf c0a7 de3e
000001d0: 3153 1bbf 7bce d3bf 98f5 4cbf 8f33 f0bf
000001e0: 0d6b 48bf d3ff babf 708d ccbf 0212 b1bf
000001f0: 5322 64c0 d087 9ebf 80e0 a0bf faef 07bf
00000200: 3aba 81bf 9f20 70bf 6ffa 0fbf ba8d 40c0
00000210: af47 18c0 3c61 2f3f 7778 d2bf cccd 983c
00000220: 164c edbf fcd7 c8bf e060 c1bf 8060 463f
00000230: be4c 7ebf 1e42 aabf a1ec b3bf 8a71 32c0
00000240: c2e9 b3bf 111b bbbf 02f9 4dbf b12f 0ac0
00000250: 4dbd d8be bab1 dcbf a1cf ecbf c374 9fbf
00000260: df21 a93e 4249 ebbe ef1d a1bf 874a 11c0
00000270: 8929 3bc0 5c3d 77bf cc13 36bf 55e3 03c0
00000280: fb97 223f 8de3 c4bf 863a 71c0 296f 31bf
00000290: 033f 82bf 0f5f 1ec0 d322 1fc0 db19 5bbf
000002a0: b31b a3bf febf 763f 15da e33e f4fd c3be
000002b0: f739 8ebf ce16 4c3f d090 0dc0 b505 893f
000002c0: c3de 48bf 01c7 dabf 9058 d13b db47 a93e
000002d0: 7fb9 a4bf 26c0 ec3e 4b4e 4abf 1721 babf
000002e0: 26e9 b4bf a627 80be bb7b c8bf b65f 8c3f
000002f0: 3738 97bf 52c0 78bf a2e3 983d dd8d 70c0
00000300: 5692 b9bf 4057 34c0 151a 6fbf 9c10 993f
00000310: 3cd9 eabf 2555 c0be cd36 14bf d1f8 0ebf
00000320: 5b9e 32bf ece0 b6bf 484e 093f 0b7c f73e
00000330: 4751 3b3e f11c b2bf 80aa dabe f9af 56c0
00000340: fe5a cebf ac11 913f 899f 8a3e ddff a43e
00000350: e8de 903f aab9 cf3e 5936 1c3f 4753 72bf
00000360: 934c 2bbf 51a0 bbbf dac9 8bbe 9625 1ebf
00000370: 2746 6ebf 81c9 11c0 c3ab 773f 2ed1 48c0
00000380: 13c7 14c0 5e14 7ebf 8515 cebf e1b5 02bf
00000390: eaff b9be aef3 2e3c af1c edbe 5ad7 cdbf
000003a0: dc6e a4bf c887 59be 9575 01c0 7da3 a2be
000003b0: 6f55 c4bf af4d 203e 0ad4 5d3f 67a2 b0bf
000003c0: 2836 3cc0 2237 a8bf d01e b33f b55d 9b3f
000003d0: 87e4 e9bf 06e3 07c0 6f37 f83e ccf4 5c3d
000003e0: 2dcd 82bf b34d 9ebe 2333 3c3f adc9 d4bf
000003f0: e6dd 05c0 cbd9 683d 9ab0 3cbf 205c 8c3f

action_out.weight f4 [2, 256]
-0.018016968 -0.003048759 -0.005496727 -0.030154297 -0.10865621 -0.008696626 -0.19512443 -0.017718863
-0.006101535 -0.031143967 -0.04507263 0.05294336 0.009128971 0.13220681 0.028131004 -0.01205673
-0.034661356 -0.015874326 -0.492875 -0.06459316 0.031190796 0.0047768266 -0.023672657 -0.006074598
0.14823359 0.01074675 0.06450263 0.10637919 -0.0022319593 -0.0017036963 -0.018404448 0.022579364
-0.014516725 -0.036683768 -0.20351312 0.1517272 0.011543238 0.0034000902 0.07784932 -0.042218473
-0.11496679 -0.14951909 0.31340504 0.06551228 -0.032056436 0.027671525 -0.019367982 -0.012707578
-0.061740514 -0.017802736 0.018567199 0.01206281 -0.038025063 0.045659427 0.059748802 -0.02540277
-1.2764307 0.051419307 -0.008408795 -0.026090562 0.016279463 -0.029693697 -0.012945126 -0.05770796
-0.16462693 -0.02684573 -0.01095369 0.090568565 -0.0216054 -0.014550816 0.001043329 -0.14974846
0.08392337 0.025972195 -0.033866465 0.024652654 0.024190031 -0.21109925 0.022420235 -0.005974332
0.20365779 0.0015231003 0.023031507 -0.014664211 0.015184299 0.37400782 -0.026676139 0.022102522
0.035414062 -0.029871155 0.017939012 0.052651938 0.010242417 0.0032343008 0.0154671995 0.08698496
0.0010072708 -0.11565373 0.0044775074 0.01744066 -0.008830511 0.027647976 -0.017738543 0.042596772
-0.028257426 -0.0069995504 -0.37017402 -0.031037003 0.031630423 0.042823892 0.024043646 0.12855288
-0.005817072 1.09435 0.02473925 -0.012016962 -0.010048761 1.964576 -0.00028880982 -0.0716794
0.36728847 -0.056662384 -0.053496536 -0.082099214 -0.059119515 0.005694418 0.0030991365 -0.015083876
-0.07043864 -1.6707272e-05 -0.0036337317 -0.07466309 0.01121583 0.026550513 -0.033953063 -0.011226222
-0.010483522 -0.00077268796 0.06105473 0.033627715 -0.083347045 -0.001336135 0.011378683 0.009230059
0.014515001 -0.08458174 -0.074631326 -0.013188906 0.05644296 -0.73766226 -0.033280373 0.2199339
0.009133961 0.009696169 0.042064834 -0.008903971 -0.0019857602 -0.056140687 0.026948102 -0.5575135
0.017559795 -0.8891955 -0.43707386 0.058831844 -0.00517814 0.042945307 -0.009921395 -4.8231754
0.02439956 0.08253085 0.054197323 0.04235281 -0.7298342 -0.03699263 0.0010909184 -0.019701552
0.009534367 0.0010520783 -0.03668931 -0.04095319 -0.04131459 0.0052774954 0.0032979148 -0.05771184
-0.0011991882 0.030381087 -0.035245005 0.004178579 0.06594206 0.20810746 -0.023737684 -0.009031982
0.0013290459 0.026643666 0.0627379 0.02945671 -1.1532393 0.075868234 -0.0056897053 0.030745342
-0.0032595368 0.011426548 -0.07820392 0.022728141 0.007763568 1.1749434 -0.022548374 -0.019367646
-0.2727402 0.010047437 -0.03686913 -0.027444813 -0.0036066133 0.027558867 0.019116063 -0.2632084
-0.281805 0.017321961 0.12703758 0.011447642 0.018985655 0.061302576 0.019039426 -0.0013149946
0.12337466 -0.08458525 -0.018112564 0.007548785 -0.03905248 -0.025053412 -0.012638179 -0.0005034645
0.01749527 -0.009775446 -0.002452024 -0.030008618 0.07374596 0.024611712 -0.0007105714 -0.11238308
1.1914127 0.011681614 -0.020632997 0.011032889 -0.008312623 -0.103631936 0.010995685 -0.004949593
-0.045989215 -0.03558863 0.04350916 -0.032696083 0.0024609184 0.008656965 -0.0040569217 0.009216921
00000000: 5298 93bc b0cd 47bb e31d b4bb 2506 f7bc
00000010: 2687 debd 4b7c 0ebc b3ce 47be 2627 91bc
00000020: 63ef c7bb a221 ffbc 149e 38bd 23db 583d
00000030: ae91 153c 3961 073e fe72 e63c 9789 45bc
00000040: 11f9 0dbd e00a 82bc 1d5a fcbe 6b49 84bd
00000050: d783 ff3c ed86 9c3b 29ed c1bc 6c0d c7bb
00000060: 8cca 173e 2313 303c f419 843d 55dd d93d
00000070: 1046 12bb 904e dfba edc4 96bc 5cf8 b83c
00000080: 8fd7 6dbc b841 16bd be65 50be 605e 1b3e
00000090: d91f 3d3c 0cd4 5e3b 776f 9f3d 47ed 2cbd
000000a0: b573 ebbd 881b 19be a076 a03e 4d2b 863d
000000b0: 9c4d 03bd 65af e23c 9aa9 9ebc 7233 50bc
000000c0: 9fe3 7cbd 0bd7 91bc 3d1a 983c 18a3 453c
000000d0: 2bc0 1bbd 6105 3b3d 29bb 743d 7819 d0bc
000000e0: 1562 a3bf 0d9d 523d 0bc5 09bc e0bb d5bc
000000f0: 825c 853c 3240 f3bc cb17 54bc 2f5f 6cbd
00000100: f693 28be 94eb dbbc 1b77 33bc 037c b93d
00000110: cffd b0bc 8c66 6ebc 50c0 883a a957 19be
00000120: 04e0 ab3d a4c3 d43c 90b7 0abd 5df4 c93c
00000130: 2c2a c63c 672a 58be a4aa b73c 54c4 c3bb
00000140: ab8b 503e c4a2 c73a 92ac bc3c 2942 70bc
00000150: 91c7 783c f47d bf3e eb87 dabc 5910 b53c
00000160: 560e 113d 5ab4 f4bc d6f4 923c 8fa9 573d
00000170: d0cf 273c 90f6 533b 236a 7d3c 2c25 b23d
00000180: 6606 843a dddb ecbd 0eb8 923b b7df 8e3c
00000190: d9ad 10bc 027e e23c 6c50 91bc f479 2e3d
000001a0: 1e7c e7bc 7c5c e5bb 7387 bdbe 5041 febc
000001b0: e78e 013d 1b68 2f3d 2ef7 c43c 5ea3 033e
000001c0: 239d bebb a913 8c3f f8a9 ca3c cbe2 44bc
000001d0: 8fa3 24bc 3a77 fb3f 666b 97b9 a6cc 92bd
000001e0: 3c0d bc3e d116 68bd 2f1f 5bbd a223 a8bd
000001f0: 4e27 72bd 3e98 ba3b e21a 4b3b 5d22 77bc
00000200: 2242 90bd 9826 8cb7 e723 6ebb f6e8 98bd
00000210: 9ac2 373c 7680 d93c 5e12 0bbd 30ee 37bc
00000220: 14c3 2bbc 368e 4aba 8614 7a3d 37bd 093d
00000230: dbb1 aabd 4021 afba a86d 3a3c ac39 173c
00000240: 54d0 6d3c 3139 adbd 4fd8 98bd 4816 58bc
00000250: bc30 673d 6fd7 3cbf 0051 08bd 5a36 613e
00000260: 9ca6 153c aedc 1e3c 2d4c 2c3d f6e1 11bc
00000270: 8723 02bb c7f3 65bd 44c2 dc3c 34b9 0ebf
00000280: 8fd9 8f3c 51a2 63bf 25c8 dfbe a9f9 703d
00000290: 63ad a9bb 6be7 2f3d 598d 22bc 7457 9ac0
000002a0: 96e1 c73c ef05 a93d 03fe 5d3d 247a 2d3d
000002b0: 6ad6 3abf 9685 17bd 26fd 8e3a 2665 a1bc
000002c0: 0936 1c3c e4e5 893a 8847 16bd 88be 27bd
000002d0: 7d39 29bd d7ee ac3b d421 583b 4063 6cbd
000002e0: 142e 9dba c2e1 f83c 115d 10bd 76ec 883b
000002f0: a10c 873d 1f1a 553e 8875 c2bc e1fa 13bc
00000300: 6133 ae3a d143 da3c ba7c 803d 334f f13c
00000310: 589d 93bf ce60 9b3d b570 babb a8dd fb3c
00000320: f49d 55bb 6a36 3b3c 6029 a0bd 5e30 ba3c
00000330: 8765 fe3b 8c64 963f 5eb7 b8bc e6a8 9ebc
00000340: 9aa4 8bbe 019e 243c 1604 17bd f2d3 e0bc
00000350: ee5c 6cbb 22c3 e13c 4a99 9c3c 40c3 86be
00000360: bf48 90be c9e6 8d3c 2416 023e e48e 3b3c
00000370: ce87 9b3c 6918 7b3d 92f8 9b3c e65b acba
00000380: dbab fc3d 083b adbd cd60 94bc cc5b f73b
00000390: 7ef5 1fbd d03c cdbc 5d10 4fbc eefa 03ba
000003a0: 3e52 8f3c 3129 20bc 23b2 20bb a2d4 f5bc
000003b0: 1f08 973d 809e c93c a445 3aba 1a29 e6bd
000003c0: 3680 983f 3e64 3f3c 8806 a9bc 4ac3 343c
000003d0: ab31 08bc fb3c d4bd 3f27 343c 3230 a2bb
000003e0: 305f 3cbd 62c5 11bd a936 323d 54ec 05bd
000003f0: 5c47 213b f1d5 0d3c edef 84bb 9202 173c

action_out.bias f4 [2]
0.0009566923 0.0019785387
00000000: 89ca 7a3a 5faa 013b
